…
To enable them in other operations, rebuild TensorFlow with the appropriate compiler flags.
2020-11-25 20:03:23.514716: I tensorflow/compiler/xla/service/service.cc:168] XLA service 0x7fb5878d2560 initialized for platform Host (this does not guarantee that XLA will be used). Devices:
2020-11-25 20:03:23.514744: I tensorflow/compiler/xla/service/service.cc:176]   StreamExecutor device (0): Host, Default Version
Model: "sequential"
_________________________________________________________________
Layer (type)                 Output Shape              Param #   
=================================================================
conv1d (Conv1D)              (None, 10765, 50)         1850      
_________________________________________________________________
conv1d_1 (Conv1D)            (None, 10730, 50)         90050     
_________________________________________________________________
max_pooling1d (MaxPooling1D) (None, 3576, 50)          0         
_________________________________________________________________
conv1d_2 (Conv1D)            (None, 3541, 50)          90050     
_________________________________________________________________
conv1d_3 (Conv1D)            (None, 3506, 50)          90050     
_________________________________________________________________
global_average_pooling1d (Gl (None, 50)                0         
_________________________________________________________________
dropout (Dropout)            (None, 50)                0         
_________________________________________________________________
dense (Dense)                (None, 1)                 51        
=================================================================
Total params: 272,051
Trainable params: 272,051
Non-trainable params: 0
_________________________________________________________________
None
Epoch 1/20
1011/1011 - 1851s - loss: 0.4009 - accuracy: 0.8170 - precision: 0.8267 - recall: 0.6443 - true_negatives: 13996.0000 - true_positives: 5828.0000 - false_negatives: 3218.0000 - false_positives: 1222.0000 - auc: 0.8942
…
