…
To enable them in other operations, rebuild TensorFlow with the appropriate compiler flags.
2020-11-24 21:33:45.841306: I tensorflow/compiler/xla/service/service.cc:168] XLA service 0x7fed9bd59d10 initialized for platform Host (this does not guarantee that XLA will be used). Devices:
2020-11-24 21:33:45.841329: I tensorflow/compiler/xla/service/service.cc:176]   StreamExecutor device (0): Host, Default Version
Model: "sequential"
_________________________________________________________________
Layer (type)                 Output Shape              Param #   
=================================================================
conv1d (Conv1D)              (None, 10765, 50)         1850      
_________________________________________________________________
conv1d_1 (Conv1D)            (None, 10730, 50)         90050     
_________________________________________________________________
max_pooling1d (MaxPooling1D) (None, 3576, 50)          0         
_________________________________________________________________
conv1d_2 (Conv1D)            (None, 3541, 50)          90050     
_________________________________________________________________
conv1d_3 (Conv1D)            (None, 3506, 50)          90050     
_________________________________________________________________
global_average_pooling1d (Gl (None, 50)                0         
_________________________________________________________________
dropout (Dropout)            (None, 50)                0         
_________________________________________________________________
dense (Dense)                (None, 1)                 51        
=================================================================
Total params: 272,051
Trainable params: 272,051
Non-trainable params: 0
_________________________________________________________________
None
Epoch 1/10
1011/1011 - 1713s - loss: 0.4793 - accuracy: 0.7534 - precision: 0.7914 - recall: 0.4628 - true_negatives: 14081.0000 - true_positives: 4200.0000 - false_negatives: 4876.0000 - false_positives: 1107.0000 - auc: 0.8395
…
