…
                optimizer='adam', metrics=['accuracy'])

history = model_1.fit(train_set_pieces,
                      train_set_targets_one_hot,
                      batch_size=32,
                      epochs=1,
                      callbacks=callbacks_list,
                      validation_split=0.2,
                      verbose=1)

print(history)

Model: "sequential"
_________________________________________________________________
Layer (type)                 Output Shape              Param #   
=================================================================
conv1d (Conv1D)              (None, 10783, 100)        1900      
_________________________________________________________________
conv1d_1 (Conv1D)            (None, 10779, 100)        50100     
_________________________________________________________________
max_pooling1d (MaxPooling1D) (None, 3593, 100)         0         
_________________________________________________________________
conv1d_2 (Conv1D)            (None, 3584, 160)         160160    
_________________________________________________________________
conv1d_3 (Conv1D)            (None, 3575, 160)         256160    
_________________________________________________________________
global_average_pooling1d (Gl (None, 160)               0         
_________________________________________________________________
dropout (Dropout)            (None, 160)               0         
_________________________________________________________________
dense (Dense)                (None, 2)                 322       
=================================================================
Total params: 468,642
Trainable params: 468,642
Non-trainable params: 0
_________________________________________________________________
None
607/607 [==============================] - ETA: 0s - loss: 0.5089 - accuracy: 0.7579WARNING:tensorflow:Early stopping conditioned on metric `acc` which is not available. Available metrics are: loss,accuracy,val_loss,val_accuracy
…
                optimizer='adam', metrics=['accuracy'])

history = model_1.fit(train_set_pieces,
                      train_set_targets_one_hot,
                      batch_size=24,
                      epochs=1,
                      callbacks=callbacks_list,
                      validation_split=0.2,
                      verbose=1)

print(history)

Model: "sequential"
_________________________________________________________________
Layer (type)                 Output Shape              Param #   
=================================================================
conv1d (Conv1D)              (None, 10783, 80)         1520      
_________________________________________________________________
conv1d_1 (Conv1D)            (None, 10774, 80)         64080     
_________________________________________________________________
max_pooling1d (MaxPooling1D) (None, 3591, 80)          0         
_________________________________________________________________
conv1d_2 (Conv1D)            (None, 3582, 80)          64080     
_________________________________________________________________
conv1d_3 (Conv1D)            (None, 3573, 80)          64080     
_________________________________________________________________
global_average_pooling1d (Gl (None, 80)                0         
_________________________________________________________________
dropout (Dropout)            (None, 80)                0         
_________________________________________________________________
dense (Dense)                (None, 2)                 162       
=================================================================
Total params: 193,922
Trainable params: 193,922
Non-trainable params: 0
_________________________________________________________________
None
809/809 [==============================] - ETA: 0s - loss: 0.5129 - accuracy: 0.7574


=============================
# TEST 3

filters = 20
kernel_size = 360
model_1 = Sequential()
model_1.add(Conv1D(filters=filters, kernel_size=kernel_size, activation='relu', input_shape=(10800, 1)))
…
model_1.compile(loss='binary_crossentropy',
                optimizer='adam', metrics=['accuracy'])

history = model_1.fit(train_set_pieces,
                      train_set_targets_one_hot,
                      batch_size=24,
                      epochs=1,
                      callbacks=callbacks_list,
                      validation_split=0.2,
                      verbose=1)


Model: "sequential"

_________________________________________________________________
Layer (type)                 Output Shape              Param #   
=================================================================
conv1d (Conv1D)              (None, 10441, 20)         7220      
_________________________________________________________________
conv1d_1 (Conv1D)            (None, 10082, 20)         144020    
_________________________________________________________________
max_pooling1d (MaxPooling1D) (None, 3360, 20)          0         
_________________________________________________________________
conv1d_2 (Conv1D)            (None, 3001, 20)          144020    
_________________________________________________________________
conv1d_3 (Conv1D)            (None, 2642, 20)          144020    
_________________________________________________________________
global_average_pooling1d (Gl (None, 20)                0         
_________________________________________________________________
dropout (Dropout)            (None, 20)                0         
_________________________________________________________________
dense (Dense)                (None, 2)                 42        
=================================================================
Total params: 439,322
Trainable params: 439,322
Non-trainable params: 0
_________________________________________________________________
None
809/809 [==============================] - ETA: 0s - loss: 0.6653 - accuracy: 0.6281     


=====================
# TEST 4

filters = 100
kernel_size = 360
model_1 = Sequential()
model_1.add(Conv1D(filters=filters, kernel_size=kernel_size, activation='relu', input_shape=(10800, 1)))
…
model_1.compile(loss='binary_crossentropy',
                optimizer='adam', metrics=['accuracy'])

history = model_1.fit(train_set_pieces,
                      train_set_targets_one_hot,
                      batch_size=24,
                      epochs=1,
                      callbacks=callbacks_list,
                      validation_split=0.2,
                      verbose=1)


Model: "sequential"
_________________________________________________________________
Layer (type)                 Output Shape              Param #   
=================================================================
conv1d (Conv1D)              (None, 10441, 100)        36100     
_________________________________________________________________
conv1d_1 (Conv1D)            (None, 10082, 100)        3600100   
_________________________________________________________________
max_pooling1d (MaxPooling1D) (None, 3360, 100)         0         
_________________________________________________________________
conv1d_2 (Conv1D)            (None, 3001, 100)         3600100   
_________________________________________________________________
conv1d_3 (Conv1D)            (None, 2642, 100)         3600100   
_________________________________________________________________
global_average_pooling1d (Gl (None, 100)               0         
_________________________________________________________________
dropout (Dropout)            (None, 100)               0         
_________________________________________________________________
dense (Dense)                (None, 2)                 202       
=================================================================
Total params: 10,836,602
Trainable params: 10,836,602
Non-trainable params: 0
_________________________________________________________________
None
809/809 [==============================] - ETA: 0s - loss: 5.6566 - accuracy: 0.6307 WARNING:tensorflow:Early stopping conditioned on metric `acc` which is not available. Available metrics are: loss,accuracy,val_loss,val_accuracy
…
model_1.compile(loss='binary_crossentropy',
                optimizer='adam', metrics=['accuracy'])

history = model_1.fit(train_set_pieces,
                      train_set_targets_one_hot,
                      batch_size=24,
                      epochs=1,
                      callbacks=callbacks_list,
                      validation_split=0.2,
                      verbose=1)

Model: "sequential"
_________________________________________________________________
Layer (type)                 Output Shape              Param #   
=================================================================
conv1d (Conv1D)              (None, 10792, 100)        1000      
_________________________________________________________________
conv1d_1 (Conv1D)            (None, 10784, 100)        90100     
_________________________________________________________________
max_pooling1d (MaxPooling1D) (None, 3594, 100)         0         
_________________________________________________________________
conv1d_2 (Conv1D)            (None, 3586, 100)         90100     
_________________________________________________________________
conv1d_3 (Conv1D)            (None, 3578, 100)         90100     
_________________________________________________________________
global_average_pooling1d (Gl (None, 100)               0         
_________________________________________________________________
dropout (Dropout)            (None, 100)               0         
_________________________________________________________________
dense (Dense)                (None, 2)                 202       
=================================================================
Total params: 271,502
Trainable params: 271,502
Non-trainable params: 0
_________________________________________________________________
None
809/809 [==============================] - ETA: 0s - loss: 0.5136 - accuracy: 0.7567WARNING:tensorflow:Early stopping conditioned on metric `acc` which is not available. Available metrics are: loss,accuracy,val_loss,val_accuracy
…
model_1.compile(loss='binary_crossentropy',
                optimizer='adam', metrics=['accuracy'])

history = model_1.fit(train_set_pieces,
                      train_set_targets_one_hot,
                      batch_size=24,
                      epochs=1,
                      callbacks=callbacks_list,
                      validation_split=0.2,
                      verbose=1)

Model: "sequential"
_________________________________________________________________
Layer (type)                 Output Shape              Param #   
=================================================================
conv1d (Conv1D)              (None, 10792, 200)        2000      
_________________________________________________________________
conv1d_1 (Conv1D)            (None, 10784, 200)        360200    
_________________________________________________________________
max_pooling1d (MaxPooling1D) (None, 3594, 200)         0         
_________________________________________________________________
conv1d_2 (Conv1D)            (None, 3586, 200)         360200    
_________________________________________________________________
conv1d_3 (Conv1D)            (None, 3578, 200)         360200    
_________________________________________________________________
global_average_pooling1d (Gl (None, 200)               0         
_________________________________________________________________
dropout (Dropout)            (None, 200)               0         
_________________________________________________________________
dense (Dense)                (None, 2)                 402       
=================================================================
Total params: 1,083,002
Trainable params: 1,083,002
Non-trainable params: 0
_________________________________________________________________
None
809/809 [==============================] - ETA: 0s - loss: 0.5158 - accuracy: 0.7511WARNING:tensorflow:Early stopping conditioned on metric `acc` which is not available. Available metrics are: loss,accuracy,val_loss,val_accuracy
…
                optimizer='adam', metrics=['accuracy'])

history = model_1.fit(train_set_pieces,
                      train_set_targets_one_hot,
                      batch_size=24,
                      epochs=1,
                      callbacks=callbacks_list,
                      validation_split=0.2,
                      verbose=1)

print(history)

Model: "sequential"
_________________________________________________________________
Layer (type)                 Output Shape              Param #   
=================================================================
conv1d (Conv1D)              (None, 10765, 100)        3700      
_________________________________________________________________
conv1d_1 (Conv1D)            (None, 10730, 100)        360100    
_________________________________________________________________
max_pooling1d (MaxPooling1D) (None, 3576, 100)         0         
_________________________________________________________________
conv1d_2 (Conv1D)            (None, 3541, 100)         360100    
_________________________________________________________________
conv1d_3 (Conv1D)            (None, 3506, 100)         360100    
_________________________________________________________________
global_average_pooling1d (Gl (None, 100)               0         
_________________________________________________________________
dropout (Dropout)            (None, 100)               0         
_________________________________________________________________
dense (Dense)                (None, 2)                 202       
=================================================================
Total params: 1,084,202
Trainable params: 1,084,202
Non-trainable params: 0
_________________________________________________________________
None
809/809 [==============================] - ETA: 0s - loss: 0.3520 - accuracy: 0.8452 WARNING:tensorflow:Early stopping conditioned on metric `acc` which is not available. Available metrics are: loss,accuracy,val_loss,val_accuracy
…
model_1.compile(loss='binary_crossentropy',
                optimizer='adam', metrics=['accuracy'])

history = model_1.fit(train_set_pieces,
                      train_set_targets_one_hot,
                      batch_size=16,
                      epochs=1,
                      callbacks=callbacks_list,
                      validation_split=0,
                      verbose=1)

Model: "sequential"
_________________________________________________________________
Layer (type)                 Output Shape              Param #   
=================================================================
conv1d (Conv1D)              (None, 10765, 100)        3700      
_________________________________________________________________
conv1d_1 (Conv1D)            (None, 10730, 100)        360100    
_________________________________________________________________
max_pooling1d (MaxPooling1D) (None, 3576, 100)         0         
_________________________________________________________________
conv1d_2 (Conv1D)            (None, 3541, 100)         360100    
_________________________________________________________________
conv1d_3 (Conv1D)            (None, 3506, 100)         360100    
_________________________________________________________________
global_average_pooling1d (Gl (None, 100)               0         
_________________________________________________________________
dropout (Dropout)            (None, 100)               0         
_________________________________________________________________
dense (Dense)                (None, 2)                 202       
=================================================================
Total params: 1,084,202
Trainable params: 1,084,202
Non-trainable params: 0
_________________________________________________________________
None
1214/1214 [==============================] - ETA: 0s - loss: 0.4852 - accuracy: 0.7796WARNING:tensorflow:Early stopping conditioned on metric `acc` which is not available. Available metrics are: loss,accuracy,val_loss,val_accuracy
1214/1214 [==============================] - 3458s 3s/step - loss: 0.4852 - accuracy: 0.7796 - val_loss: 1.6316 - val_accuracy: 0.6025

===================
# Cross-Validation (only 1 fold)

Model: "sequential"
_________________________________________________________________
Layer (type)                 Output Shape              Param #   
=================================================================
conv1d (Conv1D)              (None, 10765, 100)        3700      
_________________________________________________________________
conv1d_1 (Conv1D)            (None, 10730, 100)        360100    
_________________________________________________________________
max_pooling1d (MaxPooling1D) (None, 3576, 100)         0         
_________________________________________________________________
conv1d_2 (Conv1D)            (None, 3541, 100)         360100    
_________________________________________________________________
conv1d_3 (Conv1D)            (None, 3506, 100)         360100    
_________________________________________________________________
global_average_pooling1d (Gl (None, 100)               0         
_________________________________________________________________
dropout (Dropout)            (None, 100)               0         
_________________________________________________________________
dense (Dense)                (None, 1)                 101       
=================================================================
Total params: 1,084,101
Trainable params: 1,084,101
Non-trainable params: 0
_________________________________________________________________
None
WARNING:tensorflow:Early stopping conditioned on metric `acc` which is not available. Available metrics are: loss,accuracy,precision,recall,true_negatives,true_positives,false_negatives,false_positives,auc
…
To enable them in other operations, rebuild TensorFlow with the appropriate compiler flags.
2020-09-01 17:30:01.016046: I tensorflow/compiler/xla/service/service.cc:168] XLA service 0x7fdb26d64a00 initialized for platform Host (this does not guarantee that XLA will be used). Devices:
2020-09-01 17:30:01.016068: I tensorflow/compiler/xla/service/service.cc:176]   StreamExecutor device (0): Host, Default Version
Model: "sequential"
_________________________________________________________________
Layer (type)                 Output Shape              Param #   
=================================================================
conv1d (Conv1D)              (None, 10765, 100)        3700      
_________________________________________________________________
conv1d_1 (Conv1D)            (None, 10730, 100)        360100    
_________________________________________________________________
max_pooling1d (MaxPooling1D) (None, 3576, 100)         0         
_________________________________________________________________
conv1d_2 (Conv1D)            (None, 3541, 100)         360100    
_________________________________________________________________
conv1d_3 (Conv1D)            (None, 3506, 100)         360100    
_________________________________________________________________
global_average_pooling1d (Gl (None, 100)               0         
_________________________________________________________________
dropout (Dropout)            (None, 100)               0         
_________________________________________________________________
dense (Dense)                (None, 1)                 101       
=================================================================
Total params: 1,084,101
Trainable params: 1,084,101
Non-trainable params: 0
_________________________________________________________________
None
{'loss': [0.4574001431465149], 'accuracy': [0.7772420048713684], 'precision': [0.785725474357605], 'recall': [0.5543286204338074], 'true_negatives': [13839.0], 'true_positives': [5020.0], 'false_negatives': [4036.0], 'false_positives': [1369.0], 'auc': [0.8575282692909241]}
…
4: Test metrics: [0.15137286484241486, 0.9470821022987366, 0.947706401348114, 0.9089309573173523, 3679.0, 2066.0, 207.0, 114.0, 0.982365608215332] (specificity = 0.96994463485)
5: Test metrics: [0.4388442635536194, 0.7614573240280151, 0.7832840085029602, 0.478535920381546, 3560.0, 1059.0, 1154.0, 293.0, 0.8945285081863403] (specificity = 0.92395535946)

# Five-fold cross validation (w/ 8 more Conv1D layers)

Model: "sequential_2"
_________________________________________________________________
Layer (type)                 Output Shape              Param #   
=================================================================
conv1d_24 (Conv1D)           (None, 10765, 100)        3700      
_________________________________________________________________
conv1d_25 (Conv1D)           (None, 10730, 100)        360100    
_________________________________________________________________
conv1d_26 (Conv1D)           (None, 10695, 100)        360100    
_________________________________________________________________
conv1d_27 (Conv1D)           (None, 10660, 100)        360100    
_________________________________________________________________
conv1d_28 (Conv1D)           (None, 10625, 100)        360100    
_________________________________________________________________
conv1d_29 (Conv1D)           (None, 10590, 100)        360100    
_________________________________________________________________
max_pooling1d_2 (MaxPooling1 (None, 3530, 100)         0         
_________________________________________________________________
conv1d_30 (Conv1D)           (None, 3495, 100)         360100    
_________________________________________________________________
conv1d_31 (Conv1D)           (None, 3460, 100)         360100    
_________________________________________________________________
conv1d_32 (Conv1D)           (None, 3425, 100)         360100    
_________________________________________________________________
conv1d_33 (Conv1D)           (None, 3390, 100)         360100    
_________________________________________________________________
conv1d_34 (Conv1D)           (None, 3355, 100)         360100    
_________________________________________________________________
conv1d_35 (Conv1D)           (None, 3320, 100)         360100    
_________________________________________________________________
global_average_pooling1d_2 ( (None, 100)               0         
_________________________________________________________________
dropout_2 (Dropout)          (None, 100)               0         
_________________________________________________________________
dense_2 (Dense)              (None, 1)                 101       
=================================================================
Total params: 3,964,901
Trainable params: 3,964,901
Non-trainable params: 0
_________________________________________________________________

1: Test metrics: [0.6610089540481567, 0.6264424920082092, 0.0, 0.0, 3800.0, 0.0, 2266.0, 0.0, 0.5]
2: Test metrics: [0.6607688665390015, 0.6271018981933594, 0.0, 0.0, 3804.0, 0.0, 2262.0, 0.0, 0.5]
…
